…
[OK]: normalize_input found
[OK]: normalize_target found
[OK]: denormalize_output found
[OK]: forward found
[OK]: use inference, alternative method for inference
[OK]: loss is ignored, loss defined within model module
[OK]: other_setups is ignored, other setup functions before training
[OK]: flag_validation is ignored, flag to indicate train or validation set
[OK]: validation is ignored, deprecated. Please use model.flag_validation
[OK]: finish_up_inference is ignored, method to finish up work after inference
[94mModel check done
[0m
[94mModel infor:[0m
Model(
  (m_base): Sequential(
    (0): Linear(in_features=769, out_features=512, bias=True)
    (1): Tanh()
    (2): Linear(in_features=512, out_features=512, bias=True)
    (3): Tanh()
    (4): LSTM(512, 128, batch_first=True, bidirectional=True)
  )
  (m_fdback): CombineFeedBack(
    (m_gate): GatedActWithNoise()
    (m_fb_trans): Sequential(
      (0): Linear(in_features=80, out_features=80, bias=True)
      (1): Linear(in_features=80, out_features=80, bias=True)
    )
  )
  (m_fb_proc): Sequential(
    (0): LSTMLayer(
      (m_lstm): LSTM(336, 512, batch_first=True)
    )
    (1): LSTMLayer(
      (m_lstm): LSTM(512, 512, batch_first=True)
    )
  )
  (m_fb_proc_out): Linear(in_features=512, out_features=80, bias=True)
  (m_post): PostNet(
    (m_post): Sequential(
      (0): PostNetCNNLayer(
        (m_cnn): Conv1d(80, 80, kernel_size=(5,), stride=(1,), padding=(4,))
      )
      (1): GatedActWithNoise()
      (2): PostNetCNNLayer(
        (m_cnn): Conv1d(80, 80, kernel_size=(5,), stride=(1,), padding=(4,))
      )
      (3): GatedActWithNoise()
      (4): PostNetCNNLayer(
        (m_cnn): Conv1d(80, 80, kernel_size=(5,), stride=(1,), padding=(4,))
      )
      (5): GatedActWithNoise()
      (6): PostNetCNNLayer(
        (m_cnn): Conv1d(80, 80, kernel_size=(5,), stride=(1,), padding=(4,))
      )
      (7): GatedActWithNoise()
      (8): PostNetCNNLayer(
        (m_cnn): Conv1d(80, 80, kernel_size=(5,), stride=(1,), padding=(4,))
      )
    )
  )
  (m_loss): MSELoss()
)
Parameter number: 5370752

[94mLoss check[0m
[94mLoss check done
[0m
[94mLoad check point, resume training[0m
--------------------------------------------------------------
  Epoch |  Duration(s) |   Train loss |     Dev loss |  Best
--------------------------------------------------------------
      0 |        172.7 |       0.5565 |       0.2645 |   yes
…
